experiments/sac_default_exp_1747575111689/model.pt (torch, 249607 bytes, 64 tensors)

layers.0.weight f4 [64, 9]
00000000: 475c 72be ce38 013f 633a 6fbe f4d2 4abe
00000010: 5d9c c23e ff0e 7a3e e4d6 b8be d3cc 8d3c
00000020: c02e cd3f d53e 69bf 15b1 003f 5557 89bc
00000030: 0385 b13d 6655 48be 9f22 6c3f 976a 0cbf
00000040: 6bed 57be cfca 0bc0 c481 b3be 0e00 a23e
00000050: c510 083e 837e 133e a865 56be 2cbb 0b3f
00000060: 49c7 37be 57b1 c4bd 860a 343e d360 c03e
00000070: 191a 18be 7f7f 6bbc 9f5a 9f3e 2a19 9c3e
00000080: 60a9 c8be 1ffe 4e3e 555e 2f3e 44dc a3bf
00000090: f0e1 ba3e 2e2f 0abf 8b00 98be e627 823e
000000a0: 94ff 27be 8280 bbbe de0d 083f 405c 56bd
000000b0: e192 1ac0 1e8f 183f 8aa1 e5be bbfa c23e
000000c0: 01b5 3dbe 62c6 9bbe 7a45 2fbf 7419 dd3e
000000d0: ba73 2bbd 742e 093f 0074 a3bb c4e0 323f
000000e0: 397d 3a3d e282 b3be 82c3 92bd c50d d6bd
000000f0: 0be5 4fbf b2c4 4b3e 75aa 9cbf 26d2 513f
00000100: 99f8 3e3f ab12 fdbc 43d2 6d3e d84a b73d
00000110: fb07 38bf 68dd 26bf aaec b33d ef03 abbe
00000120: a1b1 29bf 5f89 82bf dc68 453d 1658 febc
00000130: 45fc 433d cb3e 293f 6718 813f 647a 3538
00000140: d007 c9be e208 3d3f 044e 4dbf d6cc c7bd
00000150: e749 1dbd 38eb 8c3e 8846 3dbf c012 4a3f
00000160: b751 8ebd cd5b f7be 3cd6 823e 6733 2d3e
00000170: f9b5 adbd 796a 01be 90d9 68be 00f6 c9be
00000180: bb6a b5be 9cc2 b6be 6eec a3bf 6244 53bd
00000190: 094b 18bf 6cb0 c0bd 1fba 07be 315a ad3d
000001a0: 12be b93c 7333 113f 2fb1 0e3e c467 afc0
000001b0: 339e 15be 10c6 e83e 0896 f03e 9427 123f
000001c0: b023 12be d966 7c3e e102 0ebf 75bb 653e
000001d0: aefc 713e 9932 003f ddba 33be c7af ae3e
000001e0: afa9 8bbb 2047 a23d ee2e 19bf d56d 773e
000001f0: fea0 8cbe 5d98 eebe 3981 393f c7f7 c63d
00000200: 5e0f 983e 28e5 49bd 2a80 56be e6b4 40bf
00000210: b13c 02be f973 b93d ba08 643f 205b 523e
00000220: 570c 9bbd c56c 48bd db5e 08be 5ef5 98be
00000230: 15f8 7dbe 8242 5fbe 1a37 983e 8114 8cbf
00000240: c037 893e 0124 413f 1055 c13e 8bcf c93e
00000250: 2f26 573e 1b7f 43be 2c1c 2dbf 01cc d1bd
00000260: a17f 0f3f 8686 853e 7ce0 a03e f619 813c
00000270: 7c9d fa3e e978 3c3e 23b1 a7be c201 3ebe
00000280: 708d 9c3e 8315 6ebf 8759 283e 207b 5c3f
00000290: c95a ce3e e60e a0be b51f 17bd de5f 7abd
000002a0: d2d6 4fbf ad80 8b3d 3658 d7bd 9785 f0be
000002b0: d1e2 4fbd 1780 53be 4d92 8cbe fdba 50be
000002c0: de5d 123f 8870 f13d 74be 4c3e 80c9 723f
000002d0: edc9 6f3e ac1d 53bf fac0 d33e 638e b03e
000002e0: 3d14 00bf d9d5 29be 7af1 553f b1b6 89be
000002f0: 3c2d d3be d739 54be 9ebf cdbd 2936 32ba
00000300: 283a 6f3c 9852 ac3e 66f8 9abd fdae 5abe
00000310: a565 5d3e 68de ad3f f4f4 593e cc11 5dbe
00000320: c14e cb3e 5fd0 33be b2fe 16bf 61ac a4be
00000330: 9704 943d b78e aa3d 09bc 14c0 9f54 0cbd
00000340: 2c68 1c3e d94d 8a3e 043e ac3d ecf8 d23d
00000350: a78c c13e 8def dcbd be8d 013e 03b8 8c3e
00000360: 385a 5f3e 7439 813e de7c b33e 1ccd 5b3c
00000370: 8075 acbe 77a1 ddbd a907 98be fda8 7ebe
00000380: 5987 71c0 8da0 643e 893f b53c 2d93 733e
00000390: 757f 023c 5956 e8bd 3e28 edbe 2e4e 2a3d
000003a0: d167 cabc 0949 b43f ae6e babe 2a8b 1ebf
000003b0: cfea 723d 5ddb 743e f03c 01bf 3820 a43e
000003c0: 9542 003f 33f4 afbe 54b7 203f aba5 1c3f
000003d0: 36a0 fb3c bda2 a73e fe09 7cbe 2b43 b2be
000003e0: 2d30 25bf d139 1f3e ada5 43be ec64 c3bf
000003f0: 3ba8 a13e 559a a0be 980d 153e 6ba6 733d
-0.23668014 0.504773 -0.23362117 -0.19807035 0.3800992 0.24419783 -0.3610145 0.017309582
1.6029892 -0.911115 0.50270206 -0.016765276 0.08667948 -0.19563827 0.9224033 -0.54850143
-0.21086662 -2.1842535 -0.3505994 0.31640667 0.13287647 0.14403729 -0.20937216 0.54582477
-0.17947115 -0.096041374 0.1758214 0.3757387 -0.14853705 -0.014373659 0.31123826 0.3048795
-0.39191723 0.20214127 0.17125829 -1.2801595 0.36500502 -0.5397824 -0.29687914 0.25421065
-0.16406089 -0.3662148 0.5314616 -0.05233407 -2.4152148 0.5959338 -0.44849807 0.38081917
-0.18526079 -0.30424792 -0.6846539 0.43183482 -0.041858412 0.53586507 -0.0049881935 0.69874215
0.045529578 -0.35060793 -0.071661964 -0.10451845 -0.81208867 0.19899252 -1.2239519 0.81961286
0.7459808 -0.03089269 0.2322474 0.08949822 -0.7188718 -0.6518159 0.087853745 -0.3340144
-0.66286665 -1.0198172 0.048195705 -0.031047862 0.047848005 0.6611144 1.0085572 4.3267748e-05
-0.39263773 0.7384168 -0.8019717 -0.09755866 -0.038400557 0.27523208 -0.7393575 0.7893486
-0.069491796 -0.48312226 0.25554073 0.1691414 -0.08481974 -0.12638272 -0.22739244 -0.39445496
-0.3543299 -0.3569535 -1.2806528 -0.051578887 -0.59489495 -0.0940865 -0.13254593 0.08464468
0.02267364 0.5671913 0.13934778 -5.4814167 -0.1461113 0.4546361 0.46989465 0.5709164
-0.14271426 0.24648608 -0.5547314 0.2243479 0.23631546 0.50077206 -0.17551751 0.34118482
-0.004262171 0.07923722 -0.59837234 0.24162991 -0.27466577 -0.4660062 0.72462803 0.097152285
0.29699224 -0.049290806 -0.20947328 -0.7527603 -0.12718464 0.09055323 0.89075816 0.20542574
-0.07570713 -0.048931856 -0.13317434 -0.298747 -0.24801667 -0.21802714 0.2972954 -1.0943757
0.26800346 0.7544556 0.3776021 0.39416155 0.2101066 -0.19091456 -0.6762111 -0.10243989
0.5605412 0.26079196 0.31421268 0.01575945 0.48948276 0.18405499 -0.32752332 -0.18555358
0.30576658 -0.93001574 0.16440402 0.86125374 0.4030364 -0.31261367 -0.036895473 -0.061126582
-0.81187165 0.06811652 -0.10514872 -0.4697692 -0.05075342 -0.20654331 -0.2745537 -0.2038383
0.5717448 0.11789042 0.19994527 0.94838715 0.23416872 -0.8246715 0.41358167 0.34483632
-0.5003088 -0.16585483 0.8357159 -0.26897195 -0.4124545 -0.20725189 -0.10046314 -0.00067982316
0.014601268 0.33656764 -0.075669095 -0.21355815 0.21620806 1.3583498 0.21284848 -0.2158882
0.39708522 -0.17559956 -0.58982384 -0.32162765 0.07227438 0.08328002 -2.3239768 -0.03426039
0.15274113 0.27012518 0.08410266 0.10301384 0.37802622 -0.10787878 0.12651727 0.2748414
0.2181176 0.25239146 0.35056204 0.013415601 -0.33683395 -0.108218126 -0.29693344 -0.24869151
-3.773886 0.2232687 0.022125022 0.23786612 0.007964958 -0.113445945 -0.46319765 0.041578464
-0.024707707 1.4084789 -0.36412567 -0.619311 0.059305962 0.23911805 -0.5048361 0.3205583
0.50101596 -0.34365997 0.62779737 0.6119029 0.030716043 0.32741347 -0.24613187 -0.3481687
-0.64526635 0.15549399 -0.19106169 -1.5265174 0.31573662 -0.31367746 0.14555967 0.05948488

layers.0.bias f4 [64]
00000000: b928 e63d b094 d4bc 7a61 f73d 8901 abbd
00000010: 0021 71be 25aa f3bd b2f0 783e a9c6 483d
00000020: 2f86 793d 9676 ce3d 2e2a 1fbd ade5 973e
00000030: e241 00be af44 81bd 3932 243d 6818 503e
00000040: 2c67 91be 09c6 bc3d 4412 86be 6d30 d8bd
00000050: dc8f 3abe bcb4 ab3e 4cf4 19be e63c a33e
00000060: e38b e0bd 68d2 f23e 4977 2dbe 8c72 0cbe
00000070: dbbb aabd f912 563e 0d7f 84bd 1541 94bd
00000080: 7e45 a2bc eb94 81be 0498 2abe 2a59 fcbd
00000090: 8e23 533c c7f8 4a3e be10 103e b6f4 013e
000000a0: 90c7 b13e 0087 93be b428 b8bd d362 273d
000000b0: 094b c83d 43ed ab3d 63f1 a73d 88f4 98bd
000000c0: c3a8 513d b8ec bf3e 1727 7b3e 79c1 9f3e
000000d0: 0d9e a3bd 7993 f8bc 79ff 0abe 54e0 fbbd
000000e0: fe19 0cbe 05ba 553d 4f82 403e 0ff3 2e3e
000000f0: 7366 07bd 50aa 053d a7e7 943d dd50 4d3c
0.11238236 -0.025949806 0.12079139 -0.08349902 -0.23547745 -0.11897687 0.24310568 0.049017582
0.060918983 0.10081212 -0.038858585 0.29667416 -0.12525132 -0.063119285 0.04008696 0.2032181
-0.28399026 0.0921746 -0.2618581 -0.105561115 -0.1821894 0.33536327 -0.15034598 0.318824
-0.10964181 0.47426152 -0.16940035 -0.13715571 -0.08336612 0.20905675 -0.064695455 -0.07238976
-0.019808527 -0.25308928 -0.16659552 -0.12321694 0.012886895 0.19821464 0.14068887 0.12691006
0.34722567 -0.28813934 -0.089921385 0.04086573 0.09779937 0.083948635 0.08200338 -0.07468516
0.051186334 0.3748529 0.2452663 0.31202295 -0.0798913 -0.030343758 -0.13574018 -0.122986466
-0.1368179 0.052179355 0.18799709 0.17084907 -0.033056688 0.032633126 0.07270747 0.012531486

layers.2.weight f4 [64, 64]
00000000: bac5 a53b aacf 883e 4034 53be 5b3b e3bd
00000010: 7257 59be af32 ac3d 57da 7bbf 54bb d33e
00000020: ef20 64bf 6b59 153e 6e29 153c 1be6 7b3e
00000030: eeb2 0f3e fa8a 623e de02 7e3e 63bc c7bc
00000040: 7a1c d13e e670 023f b0b1 a0be c1ed 483d
00000050: 2b64 033f d7aa 08be 8129 1fbf 8783 2abe
00000060: c4f6 efbe 404c 613e 6279 f13d bb80 65be
00000070: 012b 6bbe 6fc5 2cbd 4e9f 9abf bfee 28bc
00000080: 3b00 b43c d8ca d13d 85d0 a63d e119 0a3d
00000090: b8f0 0cbf 4605 eebd 28dd 13be 80da 9bbd
000000a0: b2fa 803e 14ed c93b d1b5 183d 26ea aebd
000000b0: a1e2 663e 8efa babd 00a4 203e a8ed 8fbd
000000c0: 0178 163d 1766 c5be 088e 13be ed2f 643e
000000d0: 9431 d53d e0dd 55bd 252e 10be 4bd6 1f3d
000000e0: ba60 cb3d 93fb 74bd a5a9 233e 7023 85be
000000f0: 3373 003d 3572 a2be 1f6d a2bc 2cd7 f7bd
00000100: 9444 b33e d7d8 9d3e cf86 843e d520 313f
00000110: 42df 9cbe 1070 3abe 815f d53e fc8e dfbe
00000120: d17d f4be cfd1 fcbf e993 313e 3841 8fbc
00000130: 98cc 883e 8ca4 9bbc 6837 f4bd 354e 853e
00000140: 805c f13e 5532 ddbe d9b3 0dbe da42 f5bd
00000150: 5378 0fbf 0ee1 02be bf88 22bd 971e ee3d
00000160: 342c 393f 4832 c6bd 2efe 98be e3c4 5a3e
00000170: dcb6 923e a306 59bd c20a 853e c293 ac3e
00000180: 1544 4b3e 1c55 44be e0fa 49be e0f5 4fbd
00000190: 465b b53e bc76 813e a6d8 ab3e 9c59 703f
000001a0: 08cf adbe 3454 93bf 949b 6d3d 7bb1 bc3c
000001b0: 2190 f4bd 37f8 6cbd ef12 183f 6cc1 35bf
000001c0: 0a7c 48be 2a50 15bf 571d c23c b7e5 8bbf
000001d0: 2e0c 30be d8e8 9b3e 9b80 9d3e 6f86 783e
000001e0: c130 243e b8af 903e db4c ddbe 3310 6bbe
000001f0: 7599 d33d 78eb 213e 60e4 023e fb2a 6fbf
00000200: eddb 59bc 4409 fe3d da95 893e 287d 1640
00000210: 3195 87bd d444 b3bc 88ee 9d3c 4cc2 a6bf
00000220: de48 f03e e18c e6bd 19e3 e03d 35b2 363f
00000230: 46b7 623e 5ecc 32bf 9913 4fbf fc85 183e
00000240: 144f 68be 8aea 483d 2e3c 423e 7056 d53d
00000250: b9a9 debe 65ad 313e eecc 723e cbbe 3d3e
00000260: 1810 153f f4ce efbd ea69 903d 7e6b 313e
00000270: bd8f 043f a927 30bd 999a b53e f60d 10bf
00000280: fc7c d13d 5164 5a3d 0a72 b3be e61e c33e
00000290: 505f d43e bfe0 8e3e 7a0a ef3e 3ee8 d4bf
000002a0: d7e4 49be 925f db3d ec3b a3be ccfa c1bd
000002b0: 88a6 20bf e738 813e 4181 3bbe 4379 a2bf
000002c0: 761a 643d 0325 e03e 0be6 893e f571 46bf
000002d0: 3e51 edbe ab25 f83e 7164 193e 5b8c 0ebe
000002e0: 319d d8bd e848 073f c946 1cbf 8f31 103e
000002f0: ecbb 2d3d f5fb 1b3e c326 6bbe 06b6 fd3d
00000300: 1a3a 253e a942 073e 1a6f 033b c8c9 4b3d
00000310: 7f11 71bf 7bbe 59be 65b9 553e 85b5 583e
00000320: 7938 40bf abfe 253e cf6b 053e 1db3 be3d
00000330: 03e5 89bd 1db3 613e 3c5d 413e 1139 32bd
00000340: 1666 d33e 40b4 e73e 7bb9 10bf ade9 afbd
00000350: 08e2 0fbe 1f76 be3d 1486 a8be 3a97 90bd
00000360: cfbc b83e 07ad 493e a545 cbbe 1a37 79bd
00000370: 5bb2 b43d 5f59 d93b 6fc8 65be fc72 a43e
00000380: 17bb d53d f0ed f7bd c1e2 3cbd 28c4 23bd
00000390: 0508 06bf 85e3 f33d a609 f7bd 1ddf f13e
000003a0: 929e 4d3e 20ae fdbe fafb 573e 23bd d83d
000003b0: ce14 e83e 84dc f4bc 92a4 783e 84b0 d43d
000003c0: 7809 d23d d751 b5be c088 123e e0d1 2d3e
000003d0: 1905 b33e 2cf9 99be 4988 633e 923f d2bd
000003e0: b791 293e 8fc0 a4bc c113 063f 65f6 b2be
000003f0: c6ed 8f39 9b65 cdbd cf3f 2fbe c894 70bd
0.0050589712 0.26720935 -0.206254 -0.110953055 -0.21224764 0.08408105 -0.98380035 0.41353858
-0.8911275 0.14584891 0.009104116 0.24599497 0.140331 0.22123328 0.24805781 -0.024381822
0.40842038 0.5095352 -0.31385565 0.049054865 0.5132472 -0.1334642 -0.62172705 -0.16651736
-0.46867955 0.22001743 0.1179073 -0.22412388 -0.22965623 -0.042180475 -1.2079866 -0.010310828
0.021972766 0.102437675 0.08145241 0.033716086 -0.5505481 -0.116220996 -0.14439833 -0.07610035
0.25191265 0.006162295 0.03728277 -0.08540754 0.2254739 -0.09129821 0.15687561 -0.07027751
0.03673554 -0.3855445 -0.1440965 0.22283907 0.10409847 -0.05221355 -0.14080103 0.039022725
0.099305585 -0.059810232 0.15982683 -0.260036 0.031359863 -0.31727758 -0.019827424 -0.12101588
0.35013258 0.30829498 0.258841 0.6919072 -0.30639082 -0.18206811 0.41674426 -0.43663776
-0.4775224 -1.9751529 0.1734158 -0.017487153 0.26718593 -0.01899936 -0.119246304 0.2603623
0.47140884 -0.43202463 -0.13838138 -0.119756415 -0.56042975 -0.12781164 -0.039681192 0.11626928
0.72333074 -0.09677559 -0.29881424 0.21364169 0.28655136 -0.052984845 0.2598477 0.3370648
0.1985019 -0.19173092 -0.19724607 -0.050771594 0.354212 0.252859 0.33563727 0.93886733
-0.33947015 -1.1510072 0.0580097 0.023033848 -0.11941553 -0.057853904 0.5940389 -0.70998263
-0.19578567 -0.58325446 0.023695631 -1.0929478 -0.17192146 0.30451083 0.3076218 0.24270032
0.16034223 0.28259063 -0.432227 -0.22955398 0.10332004 0.1581248 0.1278243 -0.9342496
-0.013297063 0.12404111 0.2687214 2.351389 -0.06620253 -0.021883406 0.01927878 -1.3028045
0.46930593 -0.11257339 0.109808154 0.7136567 0.22140226 -0.6984309 -0.8088928 0.14894861
-0.22686416 0.0490518 0.18968269 0.10416877 -0.43488863 0.17351301 0.23710987 0.18529813
0.5822768 -0.11709395 0.070514515 0.17326161 0.5178183 -0.043006573 0.3546951 -0.562713
0.10228917 0.053318325 -0.35047942 0.3810951 0.41478968 0.27905843 0.4668768 -1.6633375
-0.19716202 0.10711588 -0.31881654 -0.09471664 -0.62754107 0.25238726 -0.18311025 -1.2693256
0.055689298 0.43778238 0.2693332 -0.77517635 -0.46351045 0.48466238 0.14979722 -0.13920729
-0.10576857 0.5284562 -0.6104551 0.14081405 0.042415544 0.15232833 -0.22964005 0.12388234
0.16135445 0.13209023 0.0020055235 0.04975298 -0.9416732 -0.21264069 0.20871504 0.21162994
-0.7508617 0.1621043 0.13029407 0.09311507 -0.06733134 0.22040983 0.18883222 -0.043511454
0.41288823 0.45254707 -0.5653302 -0.08589492 -0.14051068 0.092998736 -0.32914793 -0.07060094
0.3608155 0.19694911 -0.39701572 -0.060843565 0.08823081 0.0066329683 -0.2243974 0.32118976
0.10436075 -0.1210593 -0.046114687 -0.03998199 -0.52355987 0.1190863 -0.12062387 0.47240534
0.20080021 -0.4954691 0.21092215 0.1058295 0.45328373 -0.029890306 0.24281529 0.1038523
0.10255712 -0.35414 0.14309978 0.16974592 0.34964827 -0.30072916 0.22219957 -0.10266031
0.16559492 -0.02011135 0.5237389 -0.3495361 0.0002745224 -0.10029145 -0.17114185 -0.05873564

layers.2.bias f4 [64]
00000000: 7d14 97bd ac95 133e 249b 61bd 8796 b1bc
00000010: e1d8 143e 58a1 2f3d 5193 953d 63bd 343e
00000020: cbb3 6f3e 8e61 6abc 40a5 1f3e 209d 1f3e
00000030: f56e aa3d c0de 743d 85d5 e73d 3ee3 c4bd
00000040: f0fb 3b3e c9dc fe3d d5ff c2bd 58e2 89bd
00000050: 20c2 b5bd f289 c33d b502 d63d 08a2 023e
00000060: e896 7f3d e4ae d4bb 6342 c33d a83d b63d
00000070: 4276 5cbd e68a 793d 26b0 243e 5076 353e
00000080: b248 233e bb43 01be df2e efbd b171 3abd
00000090: 62f4 e63d 29b8 3a3d 722f 083d 1c23 e23d
000000a0: 269c a73c 29b8 0a3e c6af 343e 28a0 8cbd
000000b0: 2907 21be f3c2 733d ed01 ca3d 4a4f 833e
000000c0: 10b8 4fbd 5059 b4bc 5c15 203d 9755 243e
000000d0: baa7 823d f558 953e 1aff 0bbd bce3 0e3e
000000e0: 3fa8 593e 1427 2d3e c578 e0bd 8dcb 013d
000000f0: 05c6 07bd 681c fb3c c587 d53d 49ae 6e3d
-0.07376955 0.14412564 -0.055079594 -0.021678222 0.14535858 0.04287848 0.07303489 0.1765037
0.2340843 -0.014305485 0.15590382 0.15587282 0.083219446 0.059782743 0.113200225 -0.096136555
0.18357825 0.12444455 -0.09521452 -0.06732625 -0.08874917 0.09547795 0.10449735 0.12757123
0.062399775 -0.006490575 0.09534147 0.08898479 -0.053823717 0.06092348 0.1608282 0.17720914
0.159457 -0.12623493 -0.11678862 -0.04551858 0.11277081 0.045585785 0.033248372 0.11041853
0.0204602 0.13546814 0.17645177 -0.06866485 -0.15725388 0.05951209 0.098636486 0.2564643
-0.050712645 -0.022015244 0.03908287 0.16048275 0.063796476 0.2916943 -0.03417883 0.13954061
0.21255587 0.16909438 -0.10960535 0.03168826 -0.03314783 0.030653194 0.104262866 0.05827168

mean.weight f4 [1, 64]
00000000: 28e3 4b3f 2cf0 08c0 8948 ea3f 2271 5a3f
00000010: 5d2e 8cbf 01e2 bfbf 7d1e ce3f 16a2 58c0
00000020: 20a9 40c0 0d56 d53f 4a9a a1c0 08a7 203f
00000030: 4d2d 90bf f034 773f ecd9 4cc0 9f39 de3d
00000040: 08fd dcbf 9c54 aabf ce0b e4c0 99af ddbf
00000050: d7e7 9a3f 8260 0fc0 04e3 f43e b8d0 4140
00000060: d7cc 21bf 1127 b73f bdf5 0c3f 7909 ef3e
00000070: cf6a 88bf 5fbe 48bf 5d5c ca3f b790 853f
00000080: 7dad 1cc0 71b0 c03f af44 263f 7b70 593f
00000090: 8ca0 943f c923 0640 d2a5 debf c24a bec0
000000a0: a141 133f 0723 873f 1d58 eb3e f8d4 adbf
000000b0: 0544 1b40 168e 103f f3dc 83bf 1499 02c0
000000c0: d577 5ebf 7712 b9bf bf3f 2b3f df4e 7fbe
000000d0: a1c3 4ec0 3be5 8dbd 0c17 193f f023 7e3f
000000e0: c6c3 433f cb1c 66bf 98e8 2d40 50f6 793f
000000f0: c8d8 c8c0 7d38 463f 2b3e ac3f 9708 683f
0.7964349 -2.139659 1.8303386 0.85328877 -1.0951649 -1.4990846 1.6103054 -3.384893
-3.0103226 1.6666886 -5.050084 0.6275487 -1.1263825 0.9656515 -3.200801 0.10850834
-1.7264719 -1.3307071 -7.126441 -1.7319213 1.2102002 -2.2402654 0.4782945 3.0283642
-0.63203186 1.4308797 0.55062467 0.46686915 -1.0657595 -0.78415483 1.5809437 1.0434788
-2.448089 1.5053846 0.6494855 0.84937257 1.1611495 2.0959342 -1.7394354 -5.9466257
0.57522017 1.0557564 0.45965663 -1.3580618 2.4260266 0.56466806 -1.0301803 -2.0405931
-0.869016 -1.445876 0.66894144 -0.2493243 -3.2306902 -0.06928488 0.5980079 0.99273586
0.764706 -0.89887685 2.7173214 0.9764147 -6.2764626 0.77429944 1.3456472 0.9063811

log_std.weight f4 [1, 64]
00000000: 52bf 313e 0bda ecbe b918 2c3f 7179 9c3e
00000010: ed65 91be 1b2c 5abc 6381 dc3d f7ae 633f
00000020: 0152 953e 67b8 683f 527f 1340 a07f fdbe
00000030: b849 0fc0 8a65 4b3e f4b8 a33f 4ae5 343c
00000040: e086 f1be c9ca 99be 08c9 8040 7957 433e
00000050: a6af 523f 9c33 3fbf 426a 533f 4bf0 a13f
00000060: f08e debe 9a0e 4c3e 0276 13bf 71b9 14bf
00000070: 1180 1c3e ae79 9fbe b711 4a3e 7893 8d3d
00000080: ff42 71bf eace e03e 6ad3 743f a1f2 15be
00000090: 04ec 3c3f 085b d43f 106c 363e 58d5 5e40
000000a0: 6e03 72be 8d01 e3bd 0b94 d0bd cb6c 7bbe
000000b0: 8463 bb3c 15d8 873e bac9 79bd 1e72 7dbf
000000c0: b897 c5bd b954 84be a4de bcbd 375e 09bf
000000d0: 3eb9 ef3d a44e 34bf c83b f03d 3bf7 a7be
000000e0: 976e 5a3e aeaa 223e 3aa3 ce3f 39ac 6f3f
000000f0: ad17 2540 50f8 25bc 6684 2bbe e29e 0c3f
0.17358139 -0.46260104 0.67225224 0.30561402 -0.28398076 -0.01331618 0.10766866 0.8893885
0.29164127 0.90906376 2.304646 -0.49511433 -2.2388744 0.19862953 1.2790818 0.011040995
-0.47173214 -0.30037525 4.02454 0.19076337 0.8229927 -0.74688125 0.8258401 1.2651457
-0.43468428 0.19927445 -0.5760194 -0.5809546 0.15283228 -0.31147522 0.1973332 0.06912893
-0.9424285 0.43907863 0.9563509 -0.14643337 0.7379763 1.659028 0.1781466 3.4817715
-0.23634121 -0.1108428 -0.10184487 -0.2455322 0.022874601 0.26532045 -0.060983397 -0.99002254
-0.09648079 -0.25845888 -0.09222153 -0.53659385 0.11705254 -0.70432496 0.11730152 -0.3280581
0.21331249 0.15885422 1.6143563 0.93622166 2.57957 -0.010130003 -0.16749725 0.54929936

q1_layers.0.weight f4 [64, 10]
00000000: 081f 613f 83b2 65be 7b29 2cbe 28e3 963d
00000010: 1678 903e 02d7 5cbf df58 863e 33f6 973d
00000020: e8a6 f03e 200d 0fbd aefd d93d ec09 743e
00000030: 88db 913d 5f2b aabc 03d2 94bc 3e77 123f
00000040: 823b f23e 6314 bdbe ea4b 233f 2ca9 1c3d
00000050: 6cbc 4fbe dea4 fc3e a7e6 d73c bfb2 763c
00000060: 9357 a0ba 45ac 613e 5408 f5be 01b4 cabd
00000070: fd2b ba3f c877 58bc 12ff 99be b8eb 9fbc
00000080: c3fd 02be 42be ecbd 9bea 25bd ebe3 f93c
00000090: ce0c d2bd 57e3 8bbc de30 2d3f 21d7 77bd
000000a0: fc07 eebd ea66 d83e 3884 303e 9f68 d23d
000000b0: 1883 f83d e3ca 463e 4ee8 eebe 42a7 d9be
000000c0: 381f 6a3d 789d 473e 7e49 1e3f 3edd 3a3e
000000d0: 1307 2dbe 6bea ccbd 1c46 0d3e 47ed 0fbf
000000e0: 3faf c03d a488 41be dd07 52bf 50d2 093c
000000f0: a7e7 1bbd fe28 133e 2c65 0a3d c31a e2ba
00000100: fc0c c13d a699 513e 8ff9 a13d f005 bfbe
00000110: ddc9 67be 1532 7abd fcbc 4c3f b8c5 cb3e
00000120: 12cc e1bd 91e4 10bd afa9 3b3e 16b9 52bf
00000130: cc92 bdbe 86aa 9f3c 4a69 78be 6aaa 833c
00000140: 17fb 35be cf6a b63e dfa9 813e dfd9 bfbc
00000150: e1c8 37bf 427d dc3c 9aa2 64be 5d66 793e
00000160: f118 e03e 9def 4e3d 0a62 d23c 3d49 4dbe
00000170: d7e3 7f3e 5039 573d 20a8 83bd 58c2 52be
00000180: 217f bd3d f14d fbbe 12e7 73bf bb04 f5bc
00000190: 8c2b c13e 41cd 02be 82cb 29be 7fae 8fbe
000001a0: 8af2 acbd df87 68be be67 473e 85d1 b2be
000001b0: 927b c2bb 3f7b 333e 55ef 7dbe 7de6 90bc
000001c0: 5f04 91ba 2f3b babe f562 cc3b aab0 913e
000001d0: 2eef 84bc 6336 4cbc cb1b cb3e 634e fcbd
000001e0: a4aa 28bf 501c a73e fd43 ddbc 27e6 e03c
000001f0: 6da1 b53d b0ae 263f 1368 a1be 7837 8cbd
00000200: 2811 463f de0d 873c a4b3 1ebf d5af e5bd
00000210: f2e0 fb3c 1ce1 8cbd 4bfa a4be 8ebc 193f
00000220: 5419 fa3d b20f 3f3d 2e04 823f 15ed ecbc
00000230: 0fa4 b83d 577b 503d 3c08 cd3d 1f26 053e
00000240: 1edf 353b 9c63 e43c 0421 483d 5bd5 78be
00000250: 01f3 16bf 2cb6 ebbb 94ce 1c3f 0db9 6b3e
00000260: a0d8 a4bd e6c0 5e3b 35da ebbe 20bd 27bf
00000270: 91b9 82be 9634 b63d b7e4 da3e 2630 d6bd
00000280: 1b6b 8b3e 5d95 823d b5c0 863e 493b 9bbd
00000290: eb25 d6bc 939a 713e ee96 4cbe 1449 d3be
000002a0: 208b 83bd 824e 8cbc 9c70 92be 0c0b 33bf
000002b0: 5af6 153e 6cad ba3d 27a8 8f3d fa3e 933e
000002c0: 1ca6 1d3f ee13 de3b 57a0 0abf f429 443d
000002d0: 281e e33e 6596 55bf 81ba ebbe 686a 133f
000002e0: f6b4 ccbd 441f a3be f926 263f 8b9b a73d
000002f0: e683 5dbf a601 5fbe 42d1 923e 0058 85bd
00000300: 80e7 953e eccf b5bd 0b80 c4be baa3 d6be
00000310: 3f8e 56bc 0760 84be 0784 813f fc00 e2bd
00000320: 5047 243f b351 933d d6e4 5f3d d606 2d3e
00000330: 5890 18bc 4c9f 1dbf 6661 9fbd 850a a33c
00000340: d9d3 1d3f 19c7 b3bc 4c21 debe 98d2 bb3e
00000350: 5efe 253e ed10 393e 550f c23c 487d b13e
00000360: c41b 173f 476e 8abe d0e1 d63f f6e5 123e
00000370: 6681 113f 5ce8 34be 7809 6f3d c893 c0bc
00000380: 3db5 a13e ec10 03bf b3a4 4a3e 20ec 89be
00000390: f46d a6be dd62 b53d fa1a 523e 8499 843e
000003a0: 7038 8abd 6125 3b3e 10bc 353e a637 48be
000003b0: 0510 4bbe bfb6 39be 9397 40bf 0558 bbbd
000003c0: 1ed3 58be 353c 18bf 5029 36bd e89a 40bc
000003d0: 746e ba3b e992 4f3e 14b1 173f 2dad 603e
000003e0: 2ec2 de3f a04c 3dbc eae7 b63c b850 923d
000003f0: 0be7 133c c5b0 bdbb 9ab3 163a c119 cbbc
0.87937975 -0.22431378 -0.16812699 0.07367545 0.28216618 -0.86265576 0.26239678 0.07420006
0.4700234 -0.034924626 0.10644089 0.2383191 0.071219504 -0.020772634 -0.018166548 0.572132
0.47311026 -0.36929616 0.6378771 0.038247272 -0.20286721 0.49344534 0.0263551 0.015057265
-0.001223313 0.22038372 -0.47857916 -0.09897614 1.4544674 -0.013212152 -0.30077416 -0.01952158
-0.12792115 -0.11559726 -0.04050694 0.030504188 -0.102563486 -0.017076178 0.6765269 -0.060507897
-0.11622617 0.42266017 0.17237937 0.10273861 0.12134379 0.19413333 -0.4666161 -0.4251042
0.05715868 0.19493663 0.6183089 0.1824846 -0.1689723 -0.10005649 0.13796276 -0.5622143
0.094084255 -0.1889978 -0.8204325 0.008411959 -0.038062718 0.14371106 0.03378789 -0.0017250407
0.09426305 0.20468768 0.07908928 -0.37309217 -0.22635598 -0.06108292 0.7997587 0.39799285
-0.110252514 -0.035374228 0.18326448 -0.8231367 -0.3702606 0.019490492 -0.24258915 0.01607247
-0.17771564 0.35628363 0.25324914 -0.023419319 -0.7179089 0.026915196 -0.22327653 0.24355455
0.4376903 0.05052148 0.025681514 -0.2004747 0.24989258 0.05254489 -0.06428552 -0.20581949
0.092527635 -0.49082902 -0.9527446 -0.029909482 0.37728536 -0.1277361 -0.16581538 -0.28062817
-0.08444698 -0.2270808 0.19473168 -0.34925476 -0.005935141 0.17527483 -0.24798329 -0.01768803
-0.0011063925 -0.36373278 0.0062373825 0.28455096 -0.016227331 -0.012464139 0.39669642 -0.123196386
-0.65885377 0.32638788 -0.027009958 0.027453495 0.0886868 0.651103 -0.31524715 -0.06846517
0.7736993 0.016486105 -0.6199286 -0.11215178 0.03074691 -0.06878874 -0.32222208 0.60053337
0.12211862 0.046645828 1.0157526 -0.028921643 0.09015667 0.050898876 0.10011336 0.13002823
0.0027751396 0.027879529 0.04885961 -0.24300139 -0.58964545 -0.0071933474 0.61252713 0.2301981
-0.080491304 0.0033989488 -0.46064916 -0.65522957 -0.255322 0.08896749 0.4275262 -0.10458402
0.27230152 0.06376145 0.263189 -0.07579667 -0.026141128 0.23594122 -0.1997945 -0.41266692
-0.0642302 -0.01712728 -0.2860154 -0.6993873 0.14644757 0.09115109 0.070144944 0.28758985
0.6158159 0.006777278 -0.5415091 0.047891572 0.44358945 -0.8343261 -0.4604073 0.5758424
-0.09995453 -0.3185979 0.6490322 0.08183964 -0.86529386 -0.21777973 0.28675276 -0.06510925
0.29278183 -0.088775486 -0.3837894 -0.41921788 -0.013095438 -0.25854513 1.0118417 -0.11035344
0.64171314 0.07193317 0.054661594 0.16897139 -0.009311758 -0.6157119 -0.07782249 0.019902477
0.6165138 -0.021945523 -0.43384778 0.36684108 0.16210315 0.18072863 0.023688952 0.34665895
0.5902674 -0.2703726 1.6787663 0.14345536 0.5683807 -0.17666763 0.05835864 -0.023507968
0.31583586 -0.51197696 0.1978939 -0.26937962 -0.32505763 0.08856747 0.20518103 0.25898373
-0.06749046 0.18275978 0.17747521 -0.19552478 -0.1983033 -0.18136118 -0.75231284 -0.09147648
-0.21174285 -0.5946687 -0.044472992 -0.0117556825 0.0056894366 0.20270886 0.59254575 0.21941061
1.7403009 -0.011553913 0.022327382 0.07144302 0.009027253 -0.005788895 0.00057488086 -0.024792554

q1_layers.0.bias f4 [64]
00000000: 74d5 413e c27c 6e3d 1b09 fdbd 7312 953e
00000010: b98f 433d 5b4d 303e 23b9 5d3d 0e07 f63c
00000020: 2af3 443e 04a6 af3c 5f37 273e 3dad 723e
00000030: 684f 72bd cd59 80be 6c1d 543e 9ea1 89be
00000040: 49d3 d33e 86fc ad3d 61fb a7bd 3526 1fbe
00000050: cfc3 41be 809b d13e 0d64 8dba 78c5 4f3e
00000060: b157 333e 5e56 403d 136f 3bbe 56c5 373e
00000070: e25b 1b3e 0859 4a3e d797 d23c 2579 b33e
00000080: 3a64 ee3e 384b a13d a1c9 38be 6977 4c3d
00000090: 9965 11be 18db fc3a 1f59 7f3e bafc 22be
000000a0: f252 043d e3ba 9cbd 75ef b43d 8eb5 21bd
000000b0: 7c33 b0bd 1dd0 7e3e 91d3 c1bd 5d24 a73e
000000c0: c24a 263f fbc0 a43e 67cf 8b3e 0f56 28be
000000d0: 9d2f 58bc c006 51bd c395 cabe 2df3 973d
000000e0: 1527 6d3e 9789 84bd 2381 d1bd fafe 4ebd
000000f0: 810b 613d 5494 2cbe da8e ecbd 7102 c6bd
0.18929082 0.058224447 -0.12355252 0.29115638 0.047744486 0.17217009 0.05413164 0.03003266
0.19233385 0.021441467 0.16329716 0.23698898 -0.05915776 -0.25068513 0.20714349 -0.26881117
0.41372135 0.08495431 -0.082022436 -0.15541919 -0.18922351 0.4093895 -0.0010787264 0.20290172
0.1751392 0.046957366 -0.1830409 0.17946371 0.1517177 0.19760525 0.025707169 0.35053363
0.46560842 0.07875675 -0.18045665 0.049918566 -0.14198913 0.0019291369 0.24936341 -0.1591672
0.032305665 -0.07652833 0.08834735 -0.039479785 -0.0860357 0.24884076 -0.09464181 0.3264493
0.6495782 0.32178482 0.27306673 -0.16439079 -0.013194946 -0.051031828 -0.39567384 0.07419429
0.2315944 -0.06471556 -0.10229709 -0.050536133 0.05494261 -0.16853458 -0.11550684 -0.096684344

q1_layers.2.weight f4 [64, 64]
00000000: 7ce7 d23e a1ca c73d 4644 8cbe f09d 933d
00000010: 4b2a c23e cd4a b03e a0ec bb3e c81d 653e
00000020: 081b 043e cb9c a53d 483e e23e 10a1 803e
00000030: 00e8 bcbe 8b17 6f3d 3c09 b63e 15f6 a43e
00000040: b133 813e 2b2d b03e a24d 0c3e f06f 0e3d
00000050: 10a1 f7bd 6257 893e 7f3b e0bd 4f90 6b3e
00000060: 4735 9abe 46a8 b4bf 2d8f ae3b 6589 57be
00000070: 3121 debc 17d4 90be 90d1 d4be 1704 ba3e
00000080: fdec d33e 8655 ecbe 8dbb 793d 916d 91be
00000090: b81d 99bd 7785 8bbe c50d af3e 9f6f e6be
000000a0: bb8a 2b3e fcd2 e83e 7731 33be d457 163f
000000b0: 5e39 f6be 5e87 a03e 32b1 32bf 1aa3 df3e
000000c0: 9791 af3d 75b5 ebbd 0911 d63e 9492 993e
000000d0: 9bdb adbe b07a 39bd 730b f6be c218 bf3e
000000e0: 2bfe 5e3e 88c5 50bd e1b7 cebe 17ff b33e
000000f0: 9a9f e03d e194 53bb bd50 3c3d 076a 203f
00000100: f46b 54bd 207a e3bd 92e4 9fbd 143a 58bd
00000110: 6042 153c 2e00 8b3d c0fd 41bb f868 553d
00000120: 1801 b13d ce64 b7bd fc63 08bd 202d e3bc
00000130: 90df 94bd 0e1d a1bd 7445 00bd 8c6c 123d
00000140: 0094 a7bd 62fd d53d 40bc 533c 2eee c93d
00000150: 8e9d fc3d 48bc edbd 80a5 1b3d c049 9e3d
00000160: e027 6e3c 7e71 ae3d 80b3 94bc 4e6f 813d
00000170: 008f 0f3a 921d ef3d 36ef c7bd 6aa6 d2bd
00000180: 68b6 d7bd 1a3c c7bd 0063 83bd 8075 703b
00000190: bed7 dabd 9404 e03d 38de 23bd b61d e7bd
000001a0: 1c46 86bd d817 8dbd e09e 51bc 0611 e3bd
000001b0: 5622 983d 9003 c93d beb8 cebd d8fb 43bd
000001c0: e056 a2bd 5a15 b73d a096 113d 7009 2f3c
000001d0: 9086 56bd 8caf b1bd 884b 53bd 4053 1cbd
000001e0: 10d2 1abd 2034 a6bb bc33 a2bd 3e4d a43d
000001f0: a09d f5bc 76c8 923d d024 45bd 00a5 50ba
00000200: 1da7 ba3e 777a 05be 4603 e4bd 1685 fb3c
00000210: 2016 943e beef cc3e 81ec aa3d 74e5 363f
00000220: 31ce 04bd df34 ad3d aabe 9b3e 0941 393e
00000230: 178a 8cbd 5409 3fbe 91ea 373e f23a 303f
00000240: 5c94 5f3e 3553 653e 30cc 333e 1475 1dbe
00000250: f56a 2b3f 872f 373e 6db0 abbe ac6a ab3e
00000260: c7e4 90bf eacd ecbf 55ac babd 38c8 00bf
00000270: 2ece 26be a9ba 3bbf 2057 a1bc 370a 583d
00000280: ed91 ab3e 15aa a9be 2618 083d 2d44 84be
00000290: e3c9 62be 195e b0be 066e 7a3e b9eb fd3e
000002a0: 98a7 413d 063a 033e e572 2abe a67d b53f
000002b0: be05 19bf e4aa b83e 9752 70bf 0424 513e
000002c0: ed30 ea3d 7d49 40be e97c 283e 9e5d af3e
000002d0: b7c5 323e 3be9 f3be 3cb6 04bf 8c7d 2f3f
000002e0: 56e9 6d3d 76c0 93be ebdd 0abf 0b23 3e3e
000002f0: a42c 2dbe 96fb 57be 06a2 d2bd 09cb 853f
00000300: 09e7 05be 7dca 2b3e ff41 f43e 6211 7b3e
00000310: 0fee 293d de01 debb 6d6a 72bd 1d85 cdbd
00000320: 6707 303e 84fa 3f3e 25c1 19bc 46fa 533d
00000330: fb42 403f ec1f 973e effd 243d e577 51be
00000340: 6c36 153e c08c 0ebe d7b0 933e c9bb 023e
00000350: 4770 b13e 4dae 7d3e 63f4 183e fe7f 3dbd
00000360: 5a2e 113f 53ed 9a3f 2091 323e b686 413e
00000370: ecbf 5c3e 749a 683e bac9 653e 28cc 443e
00000380: efeb b63d 5ef6 153e 0756 b4bd d0b8 b23e
00000390: 7aab 9a3e 0560 dd3e cfaf fd3d 2726 073f
000003a0: e2e2 29be cfc7 56bd 40b0 253e f510 b6bb
000003b0: af06 b53e c2c0 313c 11e2 373f f30a f7bc
000003c0: 0972 a83e 514e 113e 8cb2 28bd 0a96 8b3d
000003d0: 087b fb3e 96f5 223e 31ae 163f 55ca e7bc
000003e0: 509a 453e cee8 633e de4e 0c3f 8a65 5d3c
000003f0: decc de3d c033 843e 9158 093d 47f4 c6bd
0.41192234 0.09755445 -0.27395838 0.072078586 0.37922892 0.34432068 0.36703968 0.22374642
0.12900937 0.080865465 0.44188142 0.2512288 -0.36895752 0.05837206 0.3555392 0.32218996
0.2523475 0.3440946 0.1370149 0.03477472 -0.12091267 0.2682448 -0.10948848 0.23004268
-0.30118772 -1.4113853 0.0053271265 -0.21048506 -0.027115436 -0.28286812 -0.41566133 0.36331245
0.41391745 -0.46159 0.060969878 -0.28403905 -0.074763715 -0.27250263 0.34190193 -0.45007035
0.1675214 0.45473468 -0.17499338 0.58727765 -0.48090643 0.31353277 -0.6980163 0.43679124
0.08572691 -0.115092196 0.41809872 0.29994643 -0.33956608 -0.04528302 -0.4805561 0.37323576
0.21776645 -0.05096963 -0.40374663 0.35155556 0.109679416 -0.0032284784 0.045975436 0.62661785
-0.051860765 -0.11107278 -0.07807268 -0.052789763 0.009110063 0.06787144 -0.002960071 0.05210206
0.08642787 -0.08954774 -0.033298478 -0.027731478 -0.07269204 -0.0786687 -0.031316236 0.03574805
-0.08182526 0.104487196 0.0129233 0.09859882 0.12334739 -0.116081774 0.03799963 0.077289104
0.014535874 0.08517741 -0.018151999 0.06320058 0.0005476326 0.11675562 -0.09762423 -0.10285647
-0.10532838 -0.0972826 -0.06415367 0.003669113 -0.10685681 0.10938373 -0.040006846 -0.11284964
-0.06556341 -0.068893135 -0.012794226 -0.11087231 0.07428424 0.098151326 -0.100938305 -0.0478476
-0.07926726 0.08939619 0.035544038 0.010683402 -0.052374423 -0.08676061 -0.051585704 -0.03816533
-0.037797987 -0.0050721318 -0.07920024 0.08022545 -0.029982388 0.07167141 -0.04813081 -0.0007959157
0.36455622 -0.13034998 -0.11133437 0.030703109 0.2892313 0.4002666 0.08345891 0.7144387
-0.032423202 0.0845735 0.30418903 0.18091215 -0.06862276 -0.18655902 0.17960574 0.68839943
0.21833938 0.22395022 0.1755836 -0.15376693 0.6696008 0.17889224 -0.3353304 0.33479822
-1.1319817 -1.850034 -0.09114901 -0.5030551 -0.16289589 -0.73331696 -0.019694865 0.052744117
0.3350977 -0.33137575 0.033226155 -0.25833264 -0.22147326 -0.3444679 0.24456033 0.49593905
0.04727897 0.12815103 -0.16645391 1.417897 -0.59774387 0.3606788 -0.9387602 0.20423895
0.11435113 -0.18778034 0.164539 0.34251112 0.17458235 -0.47638878 -0.5184057 0.68550944
0.058083855 -0.28857774 -0.5424487 0.18568055 -0.1691156 -0.21092066 -0.1028481 1.0452586
-0.13076414 0.16776462 0.477066 0.2451835 0.041486796 -0.006775125 -0.059183527 -0.10035155
0.17190324 0.18747908 -0.009384428 0.05175235 0.75102204 0.29516542 0.040281232 -0.20455892
0.14571542 -0.1392088 0.28845856 0.12766947 0.34655973 0.24773522 0.14936976 -0.04626464
0.5671135 1.2103676 0.17438173 0.18899044 0.21557587 0.22715169 0.22440234 0.19218504
0.089317195 0.14644763 -0.08805471 0.34906626 0.3020895 0.4323732 0.123870485 0.5279259
-0.16590455 -0.052436646 0.16180515 -0.0055562207 0.35356662 0.01084918 0.71829325 -0.030156588
0.32899502 0.14190032 -0.0411859 0.06815727 0.49117303 0.15913996 0.58859545 -0.028294722
0.19297147 0.22256777 0.5480784 0.013512978 0.10878919 0.25820732 0.03353173 -0.09714561

q1_layers.2.bias f4 [64]
00000000: a2a1 583e 4096 9cbc 59a1 ed3d a141 893e
00000010: 9ac0 05bd be7f a83e d7e0 963d aaf7 ea3d
00000020: 60a9 793e 6b6f 363e 30bc fe3d 48cc d83d
00000030: 0bbc df3d c138 4b3e 7b0b 143e b300 d9bd
00000040: ff03 923e 5c29 02bd cce2 bd3d c8e5 ad3e
00000050: 3547 ae3e 5597 123e fbfa d53c 934d 4c3e
00000060: a6b0 343e 5142 323e dd14 25bd f6f4 073e
00000070: 53d6 22bd 963e 473e a394 ea3d 279b e1bc
00000080: 3956 833e 1b57 463e c42c a83d fe36 ef3d
00000090: 6a2b 0d3e aae0 893e e8dc 353e f274 1f3e
000000a0: ec2d ee3d 6816 d53d fb69 933e b664 163e
000000b0: 3ac6 a03e 2c4e 683e 7ea0 a03e f3ad 933e
000000c0: 449f 883e 294b 8a3e 0d87 923e 2281 8f3e
000000d0: 2d5b 763d 2830 653e 4ffe 133e 58d9 b23c
000000e0: 0f4d a53e 535b d5bc ae8e 083e a815 973e
000000f0: f33e b5bd 2a74 06be 47e2 f83d 0623 5e3e
0.21155408 -0.019114614 0.1160304 0.26807883 -0.032654382 0.3290996 0.073671035 0.114730194
0.24381018 0.1781594 0.12438238 0.105858386 0.10924538 0.19845869 0.14457504 -0.105958365
0.28518674 -0.031777725 0.09271774 0.33964372 0.34038702 0.14315541 0.026120653 0.19951467
0.17645511 0.1740811 -0.0403031 0.13277039 -0.039755177 0.19457468 0.114541315 -0.027539803
0.2565172 0.19369166 0.08211663 0.11680411 0.13786092 0.26929218 0.1776005 0.15571955
0.11629853 0.10404664 0.28791794 0.14686856 0.31401235 0.2268607 0.31372446 0.2884365
0.2668401 0.27010468 0.2861866 0.28028208 0.060145546 0.22381651 0.1445248 0.021832153
0.32285354 -0.026044523 0.13335678 0.2950871 -0.08849897 -0.1313025 0.12152534 0.21693048

q1_out.weight f4 [1, 64]
00000000: 2031 273f 007a 093c 59fb 523f cf9b 07bf
00000010: 55d1 d5bf 5b81 363f bb5d 07bf 8224 02bf
00000020: 414d 813f 7557 4d3f 11f7 aebf 2b73 0ebf
00000030: 22f5 09bf 075b 5a3f 1d4e 583f 4c72 3d40
00000040: 02aa 413f 5b15 b03c 16be 06bf b51f 493f
00000050: 1184 363f e7e2 f0be f64a 1540 09aa d0be
00000060: d410 eebe 2f5e ae3f c340 4340 0579 e8be
00000070: 695c 313d 314f 323f 3e94 13bf b749 d6bf
00000080: 05bf 9f3f 9292 d1be 42b6 8d3f b2eb 51bf
00000090: 1fa8 d1be 4bb7 febe a9bb 04bf f138 353f
000000a0: 0eb4 b3be abfd fcbe 1b9a 02bf 3e6a d6be
000000b0: b0c9 813f 8bac d3be 7072 eebe 222c d6be
000000c0: ffd1 463f 4e24 2e3f 911c 413f 2a65 f9be
000000d0: ba1b e5bf 1092 e6be b725 d83f c1b4 4d3f
000000e0: f10a 413f 4c0c c03f 16e8 b43f e881 4e3f
000000f0: 601c b63d 4c2e 96bd bd2e e6be e52f 4f3f
0.65309334 0.0083909035 0.82414776 -0.5297212 -1.6704508 0.7129113 -0.52877396 -0.50836957
1.0101701 0.80211574 -1.3669149 -0.5564448 -0.5388967 0.85295147 0.8449419 2.9601011
0.75650036 0.021494558 -0.526338 0.78564006 0.7129527 -0.47048113 2.3327003 -0.40754727
-0.46497214 1.3622493 3.0508277 -0.4540483 0.04330102 0.69652086 -0.57648075 -1.6741246
1.248017 -0.40932137 1.1071246 -0.8200027 -0.4094858 -0.49749216 -0.51848847 0.7079001
-0.35098308 -0.49412283 -0.51016396 -0.4187793 1.0139675 -0.41342577 -0.46571684 -0.41830546
0.7766418 0.68024147 0.75434214 -0.48709995 -1.7899086 -0.45033312 1.688651 0.80353934
0.7540732 1.5003753 1.4133327 0.8066697 0.08892131 -0.07333049 -0.44957533 0.80932456

q2_layers.0.weight f4 [64, 10]
00000000: 038e a63e be65 ce3d f83b df3d 1935 6e3c
00000010: 2bf8 1b3e 664d cebd 728b 923e 9321 cfbe
00000020: d708 8c3e 7ba8 e63c 3ec4 723e 34ac 483d
00000030: b1de 983c e2eb 843e f686 683d 54de 82be
00000040: 6920 9cbc 5a5a 0bbe e392 73be 387a 5dbe
00000050: d188 56be f8fb ab3e d725 37be bde4 543e
00000060: e08a 43b9 88e4 ff3d 6e3e 79be 070c 06be
00000070: 3276 733e 7dfd ac3d 9e0f 313e 48d3 0abc
00000080: b18b ebbd e090 dd3d baf4 ab3b 6366 ad3e
00000090: fee5 8b3e 7ccc cfbe 3e81 953f 4d32 ed3d
000000a0: fc54 92bd be8c 7ebe 4558 493e 805a 223d
000000b0: 60fd 55bc 8f67 a03d 75ea 723e bbf5 9ebe
000000c0: 71b2 ff3e fb27 61bc 2aed 0cbe 3946 a33d
000000d0: bd4e 773e 8742 80be 9037 353e ebd3 223f
000000e0: b98a 66bf 1ddf aebe da66 1b40 6bae 9d3d
000000f0: 0b4b 58bf a91f 983e 0163 8a3d b653 f2bb
00000100: 44ed 89bd 89af 6e3f 340e ebbe 3797 3b3d
00000110: 9d23 623f d546 25bd d51e 923e 093e 433e
00000120: d5a5 923d fddf 01bd 13a2 f4bb 4ee1 a63e
00000130: 5bb1 d53e 01e7 c8be 6314 d43e 8657 c83c
00000140: 3605 243e ed7a 053e 33a6 b5bd 58b5 093d
00000150: fa3d e3bd dc9e bc3b 50ed fb3d f3d8 a0be
00000160: ef99 9c3e 9659 d23c 8273 613e 8247 28bd
00000170: 5de1 123e 726f 8dbe 56bd fabd 4ce8 10be
00000180: 05c4 283e 3796 f9be 5605 8e3f 6019 2b3e
00000190: 5f51 cbbe c741 b4be d795 313e 8888 4f3d
000001a0: 4ad8 14bc c246 253f 295b 073f a362 4ebe
000001b0: d381 fcbd 9055 ae3d 6eef 913e 2bad 8b3e
000001c0: 3e1b 03be a95e 1d3e b3a7 953d ebfa afbe
000001d0: 0144 a5be 412c a83d e3d8 16be d853 f5bd
000001e0: a2f6 633f ba2b 10bd 27ef 5239 6462 33bd
000001f0: e4d3 abbb b47e 203e c0fc 963a 0369 10be
00000200: f368 823f 0f46 4e3c f7ac 8fbe afea 3c3f
00000210: b376 473d ed46 41bc b780 12be e192 903e
00000220: 04da 38bf aaa2 53bd 164e 0a3f a59f 7ebb
00000230: d23f 21be 3d81 0abf a742 29bd ed60 a4bc
00000240: 68e1 7c3b 7ab2 193e 8fdf 083f b423 c23d
00000250: 12ad d43f 2daf 3bbc 730a 2d3f d6e3 c2be
00000260: ff15 95bc 87a9 0ebd 8857 593b 60e3 15be
00000270: ad08 173f a84a 1dbe b6c4 823f b917 3e3c
00000280: 4259 a4bd ee4b 213f 4fe8 023d e883 99be
00000290: 9d87 873d a66c 943d 7747 2cbf e6c8 4dbe
000002a0: 02c8 7ebe 0b97 eeb8 5270 febd 454f 713d
000002b0: 5a2c 833e 0dcb e2bd fb94 c03d 066a 153e
000002c0: c93d 873e dcdf e9be d4bf 583f e3fa a83d
000002d0: 5756 b23e a165 4b3f b0d6 72bd 90de adbd
000002e0: 9aaa d43b 6d06 dfbe 9a2e 41bf a4b1 a03d
000002f0: 30d3 843f db34 09bc 94dc 373f fd82 33bf
00000300: 43fd 13bd bda7 353c c9cc 78bd 7765 32bf
00000310: 1f1a 323f 6695 bc3b 1e4a 28bf 699a 1bbd
00000320: 4517 0cbf b24a 86be 0954 a8bc 17e5 29bd
00000330: df19 3dbe 3263 0a3f 48ce 873e 606b c6bd
00000340: 8800 363f cab6 07bd 518d 373f b724 86bd
00000350: bcb1 21bc d826 04bd 82e8 063c 61c3 82bf
00000360: d73a cbbd 3d4c 213e be34 b0be c601 a13b
00000370: aa9d a9be bfd0 65be edc5 abbd 7d17 a73d
00000380: b684 4f3e 9fe6 42be 2362 9fbd 2334 d2be
00000390: 571b 873e c288 013c 822b 6d3e 7f9b b2be
000003a0: b5be 83bd 2899 2abe 4a10 9dbe 59af 7cbe
000003b0: a5f6 b63e 6eb9 613e 0c3c b0bd ec51 66be
000003c0: 225f 03bf ba79 8f3e 167f e1bc 7fc8 2cbe
000003d0: a868 21bd 9352 d43e c73f 56be a1c6 453e
000003e0: f4e0 d73e 6bf0 bdbd dbfa b1bd 3794 903e
000003f0: a8a0 8f3e 9bc6 0c3e 03fc 9d3e 8b12 003c
0.3253022 0.100779995 0.1090011 0.014539027 0.15231387 -0.10073356 0.28622013 -0.40455303
0.27350494 0.02815651 0.23707673 0.04899235 0.018660875 0.25961214 0.056769334 -0.25560248
-0.019058423 -0.13608685 -0.23786502 -0.21628654 -0.20950629 0.33590674 -0.17885529 0.20790382
-0.00018648384 0.12494761 -0.24340221 -0.13090526 0.23775557 0.084467866 0.17291114 -0.008473225
-0.115012534 0.10818648 0.0052476795 0.33867177 0.27323908 -0.40585697 1.1680067 0.1158186
-0.07145116 -0.24858376 0.19662578 0.03963709 -0.013060898 0.07832252 0.23722251 -0.31046852
0.49940827 -0.013742442 -0.13762346 0.07972378 0.2415113 -0.25050756 0.17696977 0.6360461
-0.90055424 -0.34154597 2.4281526 0.07699283 -0.84489506 0.29711655 0.06757165 -0.007395233
-0.06734708 0.93236595 -0.45909274 0.045798507 0.8833559 -0.040350754 0.28539148 0.19066633
0.07160536 -0.031707752 -0.00746561 0.3259377 0.41736874 -0.39238742 0.41421804 0.024455797
0.16017613 0.13035174 -0.088695906 0.03362021 -0.110958055 0.005756242 0.12301123 -0.3141552
0.30586192 0.025677484 0.22016719 -0.04108382 0.14343782 -0.2762409 -0.12243144 -0.14151114
0.16481026 -0.48747417 1.1095378 0.16708899 -0.3971052 -0.35206434 0.17342316 0.050667316
-0.00908477 0.6456109 0.52873474 -0.20154814 -0.123294495 0.085124135 0.28502983 0.27280554
-0.12803361 0.15368141 0.07307377 -0.34371123 -0.32278445 0.08211566 -0.14731173 -0.119788826
0.89048207 -0.03519795 0.00020116252 -0.043795004 -0.005243765 0.15673333 0.0011519417 -0.14102559
1.0188278 0.012589945 -0.2806165 0.737956 0.048697185 -0.011796695 -0.14306913 0.2823706
-0.72207665 -0.0516688 0.540254 -0.003885248 -0.15747002 -0.5410345 -0.04132333 -0.020065749
0.00385865 0.1500949 0.53466123 0.09479466 1.6615317 -0.011455339 0.6759407 -0.3806445
-0.018198965 -0.034829643 0.0033163745 -0.14637518 0.58997613 -0.1536051 1.0216281 0.011602336
-0.08024837 0.63006485 0.031959828 -0.2998345 0.06617663 0.072472855 -0.67296547 -0.20096168
-0.24880984 -0.00011376858 -0.12423767 0.058913488 0.25619775 -0.11073885 0.09403416 0.14591226
0.26414326 -0.45678604 0.84667706 0.08250978 0.34831497 0.7945195 -0.059286773 -0.08489716
0.006490064 -0.4355959 -0.75461733 0.07846382 1.0376949 -0.008374418 0.7182095 -0.7012175
-0.0361302 0.011087355 -0.060742173 -0.69686073 0.6957111 0.0057551144 -0.65738094 -0.037989054
-0.54723006 -0.26228863 -0.020547884 -0.041478243 -0.184669 0.5405761 0.26524568 -0.09688449
0.7109456 -0.033133306 0.71700007 -0.065499716 -0.009869035 -0.032263607 0.008234145 -1.0215875
-0.09923332 0.15751739 -0.3441524 0.0049135415 -0.331281 -0.22442912 -0.08387361 0.08158777
0.20265469 -0.19033287 -0.0778239 -0.41055402 0.26388046 0.007906141 0.23161128 -0.3488426
-0.06432859 -0.16659987 -0.3067649 -0.24676265 0.3573505 0.22043392 -0.08605203 -0.22492188
-0.51317036 0.28022557 -0.02752642 -0.16873358 -0.03940645 0.4146925 -0.20922767 0.19314052
0.42163813 -0.09274372 -0.08690425 0.2823808 0.28052258 0.13747637 0.30856332 0.007816921

q2_layers.0.bias f4 [64]
00000000: 6300 443e a07d bd3e 6da9 073e 7bc2 c23e
00000010: 2774 e23c afc9 e13e fb93 0ebe 482a 5dbc
00000020: 73f8 953e 210f be3e bbd1 dfbd 50d1 cf3e
00000030: 492e 113d 7a4e 32be 8d4d 233d 1a18 4f3d
00000040: 4123 09be 3a54 a13b c6e4 0ebe 0fa7 94bc
00000050: 4135 92be bd3e 8cbc 182d ca3d 45d4 babe
00000060: 0ba4 fdbd 2ba6 013e 3496 8f3a 6294 cbbd
00000070: 02c0 9b3e 2afc 543e 9253 eabc e76b 1bbe
00000080: d1fd b43e 6785 7dbd 8d8d bd3e 92a1 8abc
00000090: 3c3a d7bd 0ae9 b63e 8fdc 953d 6ba3 6f3d
000000a0: 5448 873e 3d02 aabe 2ec2 2a3e 1a50 dcbd
000000b0: c67e ce3d 3e86 823b c4ea e0bd 2c85 e63e
000000c0: f82f 863e ca1f ea3e 0966 a83d 52e7 be3e
000000d0: 4105 533e a717 98bd 0be9 483e e432 bf3e
000000e0: 1eaf 993e 2963 f23c 0733 97be 88b1 1abe
000000f0: d7ad 48be 9696 543e 5a58 813d 4e43 9f3e
0.19140773 0.37009907 0.13248225 0.38039002 0.027643276 0.44099185 -0.13923638 -0.01349885
0.29291114 0.37120917 -0.10928675 0.4058938 0.03544453 -0.17412749 0.03986888 0.050560094
-0.13392355 0.0049233707 -0.13954458 -0.018146066 -0.28556255 -0.01711976 0.09871882 -0.36490074
-0.12384804 0.12661044 0.0010954798 -0.09940411 0.30419928 0.20799318 -0.028604303 -0.1517788
0.35349897 -0.0618948 0.37022057 -0.016922746 -0.10509154 0.3572467 0.07317459 0.058505457
0.2642237 -0.33204833 0.16675636 -0.10757466 0.10082774 0.003983288 -0.10982278 0.45023477
0.26208472 0.45727378 0.08222587 0.37285858 0.20607473 -0.07426386 0.19620149 0.37343514
0.30016416 0.029588299 -0.29531118 -0.15106785 -0.19597565 0.20760569 0.0631568 0.31106037

q2_layers.2.weight f4 [64, 64]
00000000: ac50 a6bd 3e02 17be 4640 503e b879 b93d
00000010: 475a 8dbc b3d8 663e 67b3 d0be 6cad 213e
00000020: fb33 14be b6de f73d 7cc1 123e 4f7a 823d
00000030: 9101 613e 2f18 63be d52f eb3e 9d28 973e
00000040: 23b4 6cbe 6047 503e 7957 f8bd 7238 00be
00000050: a8e9 5c3e b745 d63d ce8c 163e 22f0 bcbd
00000060: b072 e63d 1907 043c 79f1 443e 1bf5 163e
00000070: 28f6 7ebc ad02 aa3f d9bd 5f3f a8e7 ee3e
00000080: e204 433e 6259 0e3f 6042 013d d6ad d33e
00000090: 6313 203d a2bb 4c3e 0292 d23e 1df0 643e
000000a0: 8955 e63d 5e33 543e 3e9e f23c 6f67 0c3f
000000b0: d971 bf3e e604 7c3e 2cda cdbd 388e 9a3d
000000c0: aa87 cebd 19ae 833e ae28 c53e 797b 9b3d
000000d0: e8e3 533e 2f09 85be 167a 983e 3cd8 6d3d
000000e0: de16 913d 3721 0e3f 125f 1e3f b763 0c3f
000000f0: 46cf e63d 9a3e 1d3f 6fa7 803f 8496 d43d
00000100: 5805 dd3d 4a10 793d a6dc f33d a1da 4c3e
00000110: 966c 3a3e 5f2b 4a3d bd18 f5be 64c1 533e
00000120: 3b2d 9fbd e392 283e 0c36 163d abf0 3fbd
00000130: 8245 563e 7603 9fbe df2f 1d3f 105d 573e
00000140: 5358 cebd d4f0 453d f8e1 14be 11c4 54be
00000150: c4d1 753e 079d 083b d415 383e d898 893c
00000160: 20d6 b33e bf1b c13d 403e bc3e a930 4a3d
00000170: 9a3e 873d b206 9b3f f9e4 4b3f 4fe6 033f
00000180: ea0b 083e add8 133f 1273 09bd 8d69 0d3f
00000190: 284f d4bc 7f76 c53d 3ee8 003f 1a5e b53e
000001a0: 585c 7f3d bc79 ab3d c5e3 80bc 3079 bb3e
000001b0: 4d61 c93e 6c37 803e f132 e4bd 16c5 523c
000001c0: 46e8 50bb 3bca 9a3e a2da 2a3e e354 813d
000001d0: 815c e13d c75d 69be bede fb3e f862 4b3e
000001e0: 0209 723e e666 1e3f e0e2 123f a2fe 123f
000001f0: 6224 223d 7388 273f 2664 9b3f 58e1 603e
00000200: 1926 40bd 13d8 ebbe bb25 4abe 6a76 813d
00000210: a872 023f d273 1c3d 4284 1c3f e7d6 333e
00000220: 7db0 c0bd 5d88 a8bd 027a c53e 18ae 44bf
00000230: 01d9 1f3e 7e9d f83d 20b5 963f ebc7 483f
00000240: f03d c4be 3866 9c3e 5852 1dc0 2cf1 d3bf
00000250: dea4 943f 0654 40bf cd21 163e ba36 2cbb
00000260: 8168 64be a842 f23d e732 3b3d 4454 9d3d
00000270: 4264 54bf 6a11 7b3d 38fd 163f 011b ddbf
00000280: 076a 75be 0982 6bbf dbe5 da3d ac52 d0be
00000290: 4e62 98bf baa2 af3e d715 17bf 489e d53f
000002a0: 0f53 f63e 3b6b 973f 437a 90be 3cd4 423e
000002b0: 19a7 1ebf 36e2 5e3e 81c8 c83f 3500 74bf
000002c0: bbc2 75be 655b 4d3d 4c92 223e 3eef f93d
000002d0: 24f7 ecbe 8854 c6bf 1940 09bf 13de 4abe
000002e0: 1c77 393e c554 03bd cb7a 633f 4011 1040
000002f0: eec5 00be 0b42 03bf 770e b5bf 88d9 333c
00000300: 6a95 823c 0232 bbbc a0c4 723e 2f98 8c3b
00000310: f3bd 84bc a32a 6d3e 659f eabe dc58 803e
00000320: 6eb9 c83d cde1 453d cb09 2d3e efb9 b03d
00000330: e270 013e 715e aebe 87b4 253f 9031 a23e
00000340: dde5 d9bc 2686 153e 9d51 50be 9dd5 c2bd
00000350: 3566 873e 6620 1b3e b897 1a3e 89f6 f83c
00000360: 88a9 643e 6752 be3c d8f0 9a3e 8d89 843b
00000370: 5d1c e33d f693 ab3f b647 333f 462f a73e
00000380: e788 243e 4a70 0c3f b885 1e3d 3138 d93e
00000390: 8031 123e fef3 373e 5e9b e63e 7046 d83e
000003a0: 6801 bbba 966e 473e 110f 6d3d 0005 073f
000003b0: 7b55 ca3e aa9c 323d 6d43 a1bd 8a4d 403e
000003c0: 5fcf 07be 7884 803e cc12 a63e a405 0e3e
000003d0: a0c7 443c b883 c0be b8b2 d43e f6eb 953e
000003e0: 7f36 123e cb78 0d3f 27c7 203f 0bac cf3e
000003f0: c7c7 313e ecd4 233f ffb4 853f c39e 223e
-0.08120856 -0.14746949 0.20337018 0.09056419 -0.017254962 0.22543602 -0.40761873 0.15788811
-0.14472954 0.121030256 0.14331621 0.06370985 0.21973254 -0.22177194 0.4593493 0.29523173
-0.23115592 0.20339727 -0.12126059 -0.12521532 0.21573508 0.10462516 0.1470215 -0.09225489
0.11252344 0.008058333 0.1923274 0.14741938 -0.015561618 1.3282067 0.8739906 0.46661115
0.19044831 0.5560514 0.03155744 0.41343564 0.03908099 0.19993451 0.4112702 0.22357221
0.11246783 0.2072272 0.029616471 0.5484533 0.37391546 0.24611244 -0.100513786 0.07546657
-0.100844696 0.25718763 0.385076 0.0759191 0.20692408 -0.2598357 0.29780644 0.058067545
0.0708444 0.5551943 0.61863816 0.5483965 0.11270003 0.6142365 1.0051097 0.10380271
0.10792035 0.06080655 0.1190732 0.20005275 0.18205485 0.04935777 -0.47870436 0.20679241
-0.07772299 0.16462283 0.036672637 -0.04686038 0.20924953 -0.31057328 0.6140117 0.21031594
-0.1007544 0.048325375 -0.14539325 -0.20777918 0.240058 0.0020845549 0.17977077 0.016796514
0.35124302 0.0942912 0.36766243 0.049362812 0.06603737 1.2111418 0.7964626 0.515233
0.13285795 0.57752496 -0.033557005 0.5523918 -0.02591665 0.09641742 0.50354373 0.35423356
0.062343925 0.08372828 -0.015733609 0.36615896 0.39332047 0.25042284 -0.11142529 0.012864372
-0.0031876727 0.30232415 0.16684964 0.06315019 0.11003972 -0.2278968 0.49193376 0.19861972
0.23636249 0.6187576 0.57377434 0.5741979 0.03958548 0.6544258 1.2139938 0.21960962
-0.046911333 -0.4606329 -0.19740956 0.06321414 0.509562 0.038196392 0.6113931 0.17562447
-0.094086625 -0.08229134 0.38569647 -0.76828146 0.15610124 0.12139414 1.1774025 0.7843005
-0.38328505 0.30546737 -2.4581509 -1.6557975 1.1612813 -0.7512821 0.14661331 -0.0026277737
-0.2230549 0.1182912 0.04570284 0.07682088 -0.8296548 0.061295904 0.5898013 -1.7273866
-0.23966227 -0.9199529 0.10688373 -0.40688074 -1.1905 0.34303838 -0.590177 1.6688929
0.48110244 1.1829599 -0.28218278 0.19026273 -0.6197372 0.2176598 1.5686189 -0.95312816
-0.24000065 0.05013599 0.1587612 0.12203835 -0.46282303 -1.5494547 -0.5361343 -0.19811277
0.18111843 -0.032063264 0.8885924 2.2510529 -0.12575504 -0.5127265 -1.4145039 0.010977156
0.015940387 -0.022850994 0.23707819 0.0042906026 -0.016203856 0.23160796 -0.45824733 0.25067794
0.09800993 0.048311044 0.16898267 0.08629214 0.12640718 -0.34056428 0.6472859 0.31678438
-0.026598865 0.14601955 -0.20343633 -0.095134 0.26445165 0.15149078 0.15096939 0.030390995
0.22330296 0.023232652 0.30261874 0.0040447176 0.11089394 1.3404529 0.700313 0.32653254
0.16067849 0.5485884 0.038701743 0.42425683 0.14276695 0.1796417 0.4504041 0.4224124
-0.0014267387 0.19475779 0.057875697 0.52742004 0.3951834 0.043606438 -0.078741886 0.18779579
-0.132627 0.25101066 0.32436216 0.13869339 0.012010485 -0.37600493 0.41542602 0.29281586
0.14278601 0.5526244 0.6280388 0.40560946 0.17361365 0.6399677 1.0445861 0.15880875
